checkpoint/ckpt.pth (torch, 560573 bytes, 56 tensors)

module.encoder.weight f4 [64, 4]
00000000: 2cc7 dcbe aeb8 e33e 5ff2 d1be 157c a93e
00000010: 26cb cabd 666b a6be 4b3e babe 710a 80be
00000020: 27c2 b0bd 5cae aebe ae9e b0be d6fc 09be
00000030: 2a52 8e3e 0e4a e63e ae7e 543e 342c 1dbb
00000040: 4b0c f8be 8435 ac3d 378d 9cbe 544e d83d
00000050: 7d2d 99be 5456 6dbe 3502 a9be 2fbe 1e3e
00000060: 01b5 ab3e c702 9b3e 6498 c8be 095d 043e
00000070: 5130 b0be f1be fabe 7fa4 dfbe a937 15be
00000080: 2164 ee3e f87f 48be f09b e73d d843 a2be
00000090: 5cec 9b3d fc9a 9f3e 37be d4be cf2d c7be
000000a0: 0c2a 9bbe d20d de3d 92f1 c5be 5da5 b5bd
000000b0: f2b2 853e f462 8e3d be19 8cbe d03f aabe
000000c0: 9f26 dc3d 6226 a8be 0410 33be 191a 543d
000000d0: 6928 383e 3e51 d53e e089 e53e 1952 1d3e
000000e0: b76e e0be 681b 33bb da77 a83e 68d7 01be
000000f0: 060f 673e fdd3 d83e 7a86 04be a32a de3e
00000100: cc3f b53e 5216 2abe 0f7e cdbe 311d d4bd
00000110: cceb 13bd 4e10 5f3e 1c45 c93d 78ce ddbe
00000120: 67c7 103e 10d2 253e fce7 423e 645e 6b3e
00000130: d606 efbe 7a6a d7be a33a 37be d793 e13e
00000140: e76d 463d cda4 bcbe b505 afbc 6e8f 3ebe
00000150: ee10 2dbd 3c9c d63e 4d60 ac3e aa93 2d3e
00000160: 37a2 0cbd 9680 9dbe 4bc7 09bd 3aba e43e
00000170: 685f 893e 0d67 813e f592 dbbd e06f a93b
00000180: 3ef1 84be f77f 11bd fadc a4bd 35c0 943e
00000190: b854 e4be 614a c03d 0614 5bbe f0dd 59bd
000001a0: 3d77 f73d 6ae4 e6be 14b9 c7bd a184 86be
000001b0: 735a ad3e bda9 323e 7ec6 ea3e 835b debe
000001c0: b9fe 2cbd 5b2b e6be 225f 65be 05cf 19bd
000001d0: 1999 fb3e a9a9 143e 99ce df3e c4a9 4b3d
000001e0: 301d a93e 436f fbbe d55a e53e ba12 c43e
000001f0: fe44 be3e 66ad b3be 0455 cf3e f976 dc3e
00000200: c2f5 f93e 5c71 f3be 07b4 c43e a4c2 75be
00000210: 0560 d2bb 8f30 ae3e cf51 01be c005 dfbe
00000220: 5823 aa3e 564d 7abe 4c2e e73e c233 b13e
00000230: a5ee 70be 52ca abbe 9e8f aa3d 09de f23e
00000240: 5f09 ed3e a606 4cbe 36de 803e 4858 93bc
00000250: f3a5 273e dafc 95bc 7311 693c 5268 e53e
00000260: 9c48 6ebc c14f b7bd c464 db3e ac8d 2bbe
00000270: a6f2 d83c 7129 8f3e 8c5b f1be 1ad8 dbbd
00000280: 4ade 743e 5c16 ce3e 2c2c e43e e2a6 22bd
00000290: 3f53 153d 29dc b7bd 8ec7 fdbe e777 db3e
000002a0: 4bc0 81be faff 073e b700 7abe 43c0 ad3d
000002b0: 83e1 d2bd d720 c73e c778 98bd 6132 abbe
000002c0: 36f6 873e 7585 57be c9c4 edbe 7bc8 693d
000002d0: e7f4 eb3e 1042 57be f975 11be f275 f8bd
000002e0: e1aa c23d 870c 33bd 4e1e 923e be09 b2be
000002f0: 670e 243e f9cf fe3e ea73 833e 91c7 2b3e
00000300: f7bc 68be 0ae5 28be 9672 7cbe 8d2c 953e
00000310: fc46 50be 2b8b 483e aa59 20bd 60f7 e73e
00000320: c5c1 bebe 49ed c2be 83c8 fc3e a358 fe3d
00000330: 6fc7 2cbe b847 c9be f498 11bd 1358 183e
00000340: 1ecd 4a3e 4acf 393e e4c0 52be 99a6 633e
00000350: 07d4 95be a625 ba3e e1da 943e 2a55 223d
00000360: f5db 52bd c22c 10be 1518 c63e b27f d33a
00000370: 4028 a43e c719 a3be e4c2 babe f4d7 de3e
00000380: d5ee 92be bb02 74be 6a09 66be 3fcc b93b
00000390: bdc8 823e 8e38 2f3d 6ff2 5a3d 4fe9 c5be
000003a0: ab3f cabe e1d8 d2be 51c2 753e 0721 1ebe
000003b0: 2925 b23d b39f d0be aed4 a43e ed5c b9be
000003c0: 30a6 f5bc e5d1 1c3e 070f a93e 2414 fcbe
000003d0: c9e4 7f3e 4c8b 663e d02d 1b3e b8c7 0a3e
000003e0: 0da0 7abe b238 cf3e 26ab ba3e 5f6d adbe
000003f0: b172 b93b c80b b3be 1b8a 8ebe 8092 aabe
-0.43120706 0.44476837 -0.41005227 0.3310248 -0.09902029 -0.32503814 -0.3637565 -0.25007966
-0.086307816 -0.341174 -0.34496063 -0.13475356 0.2779706 0.44978374 0.2075145 -0.0023982646
-0.4844688 0.08408645 -0.30576488 0.10561815 -0.29917517 -0.23177463 -0.33009496 0.15502237
0.33536533 0.30275556 -0.39178765 0.12926115 -0.34411862 -0.48973802 -0.43680188 -0.14572014
0.46560767 -0.19580066 0.113090396 -0.31692386 0.07613441 0.3117293 -0.41551372 -0.38902137
-0.30305517 0.1084248 -0.38660866 -0.08869431 0.26113087 0.069524676 -0.2736339 -0.3325181
0.10749554 -0.32841784 -0.17486578 0.0517827 0.17984165 0.41663545 0.44831753 0.15363349
-0.4383447 -0.0027329568 0.3290394 -0.12679827 0.22564325 0.42349234 -0.12941924 0.43391904
0.35400236 -0.16610077 -0.40135238 -0.1035713 -0.036113545 0.21783563 0.09827635 -0.43321586
0.14138566 0.16193414 0.19033808 0.22985226 -0.46684903 -0.42073423 -0.17893462 0.44058105
0.048444655 -0.36844483 -0.021365026 -0.18609402 -0.042252474 0.41916072 0.33667222 0.1695086
-0.034334388 -0.30762166 -0.033637326 0.4467333 0.26830602 0.25273934 -0.10721389 0.0051708072
-0.25965303 -0.035522427 -0.080499604 0.29052892 -0.44595885 0.09389187 -0.21394357 -0.05319017
0.1208329 -0.4509614 -0.09752098 -0.26273063 0.3385807 0.17447563 0.45854563 -0.43429193
-0.04223511 -0.44954953 -0.22399572 -0.037550945 0.49140242 0.14517845 0.4371231 0.049722448
0.3303008 -0.49108323 0.44795862 0.38295537 0.37162012 -0.3509323 0.4049455 0.4305952
0.4882031 -0.47547424 0.384186 -0.24000031 -0.006420138 0.34021422 -0.12628864 -0.43559074
0.3323009 -0.24443564 0.4515251 0.346098 -0.23528536 -0.33552796 0.08328174 0.47435024
0.46296212 -0.19924411 0.25169533 -0.017986432 0.16371898 -0.018309046 0.014225352 0.44806153
-0.014543679 -0.08950759 0.42850316 -0.16753262 0.026482891 0.27961305 -0.47140157 -0.107345775
0.23912922 0.40251434 0.4456495 -0.039709933 0.036456343 -0.08977539 -0.4956631 0.42864916
-0.2534202 0.13281241 -0.24414335 0.08483937 -0.10296919 0.38892242 -0.074449115 -0.33436874
0.26555032 -0.21047004 -0.46439198 0.05707596 0.46085283 -0.21021295 -0.14205159 -0.12131871
0.09505249 -0.04371312 0.28538746 -0.34773058 0.16021119 0.49768046 0.25674373 0.16775347
-0.22728334 -0.16493621 -0.24653086 0.29135552 -0.20339578 0.19584338 -0.03914801 0.4530592
-0.3725721 -0.3807166 0.49371728 0.1241925 -0.16872953 -0.3931253 -0.035546258 0.14877348
0.19804808 0.18145481 -0.20581394 0.2223152 -0.29263327 0.36356848 0.2907324 0.039632
-0.0514793 -0.14079574 0.38690248 0.0016136079 0.32061958 -0.31855604 -0.36476815 0.43524134
-0.2869784 -0.23829167 -0.22464529 0.0056701 0.25543776 0.042778544 0.05345386 -0.38654563
-0.395017 -0.4118109 0.23999907 -0.15442286 0.08698494 -0.4074684 0.32193512 -0.3620371
-0.029986471 0.15314443 0.33019277 -0.49234116 0.24989618 0.22514075 0.15154195 0.13552749
-0.24475117 0.40472943 0.364587 -0.33872506 0.0056594242 -0.34969926 -0.2783974 -0.33314896

module.encoder.bias f4 [64]
00000000: eaa4 f13e 1d89 bf3d 03ae 7dbe 0424 a5be
00000010: 5b43 54bd b7a9 e73e 577d 833e 216c d8be
00000020: 3ee0 d8be 7f0f 00bf 778e 85be 026c 98be
00000030: 8eff aabd 2fa2 98be 44db 2fbe 2b14 b33e
00000040: 7dc7 88be f618 4cbe 79d1 d53d 5649 67be
00000050: 9030 a0bd 0f2c 45bd 6a9a 3abe b7fa a63e
00000060: d95f ed3e 6026 8ebd e34b debe 4794 cbbe
00000070: 1d75 b1be dc16 a9bd 9424 ae3d a748 1abe
00000080: c421 083e 8f25 33be cd09 ed3e 1d5a cd3e
00000090: 82ee a9bd 0452 c03e c300 a7be 62c7 f3be
000000a0: 3c63 3a3d 2bbf 30be 729d a7bd 96e9 59be
000000b0: d314 813e 0fd6 94be a652 843e beb4 2dbd
000000c0: ff6c 17bd b1b7 07bc efaf edbe b126 7cbe
000000d0: 5db7 e73e 7efb fd3e 8245 ee3d 9d02 e83d
000000e0: 05b1 2e3c 01e1 c1bd 8776 9ebe 46c4 e33e
000000f0: ac9b 9d3e 0e2e efbe cc65 82be 0c48 a9be
0.47196132 0.09352324 -0.24773411 -0.3225404 -0.051822048 0.4524667 0.25681564 -0.42269996
-0.42358583 -0.50023645 -0.26085255 -0.29769903 -0.083495244 -0.29811236 -0.17173487 0.34976324
-0.26714697 -0.19931397 0.10440344 -0.22586569 -0.078217626 -0.04813772 -0.18222967 0.32613155
0.46362188 -0.06940913 -0.43417272 -0.39761564 -0.34659663 -0.08256313 0.085030705 -0.15066777
0.1329413 -0.17494796 0.4629654 0.40107813 -0.08297445 0.37562573 -0.3261777 -0.47613055
0.045504794 -0.17260425 -0.08184327 -0.21280512 0.252112 -0.29069564 0.25844306 -0.042408697
-0.03696918 -0.008283542 -0.4642329 -0.24624135 0.45257083 0.49605936 0.11634351 0.113286234
0.010662322 -0.09466744 -0.30949804 0.44485682 0.3078283 -0.46714824 -0.2546829 -0.3306278

module.s4_layers.0.D f4 [1, 64]
00000000: 29c4 0a3f 9af8 0cbe 5af4 eb3f 5c7e dbbe
00000010: 7871 12c0 192a e2bf 0da9 43bf 6e34 bebf
00000020: f92e 2a3e 65b1 b03f eda5 31bf d445 d2bf
00000030: bab5 033f 67f3 e7be b230 a5be dc55 2fbe
00000040: 96fc 8e3e fc73 8c3f de50 123f f730 013f
00000050: 759e b9be a394 97bf 0f6b 5bbf e6af 943e
00000060: 56a6 dabf eef3 8bbf 02af 1abf cbec 113e
00000070: b9f0 003f f78f d2be c7cf 55be f524 87be
00000080: ff90 00ba c088 8b3f c093 663f dc9d f4be
00000090: e42c 38bf 6a19 90bc 3b52 b4be 698e 663f
000000a0: 0671 43bf 8ee3 7cbf 5dec a2bf 3588 c3bd
000000b0: 473e 1bbf d46b 953f 662d 9c3f 1f99 f5bf
000000c0: f657 9cbf 13f1 02c0 313e a23e 0f98 67bf
000000d0: 684f c9bc 9ec2 353e 86e4 be3f c416 27bf
000000e0: 6992 2ebe 78d1 8dbf a3cb 47bf 0e89 103f
000000f0: 968f 023f a22e d4bf 18aa c4be 259a 133f
0.54205567 -0.13766709 1.8433945 -0.42869842 -2.2881756 -1.7669097 -0.76429826 -1.485975
0.16619481 1.3804137 -0.6939381 -1.642756 0.5144917 -0.4530289 -0.32263714 -0.17122597
0.27927083 1.0972896 0.57154644 0.5046534 -0.36253706 -1.1842235 -0.85710233 0.2904045
-1.7082012 -1.0933816 -0.6042329 0.14250486 0.50367314 -0.4112546 -0.20880042 -0.26395383
-0.00049044186 1.0901108 0.900692 -0.47776687 -0.719435 -0.017590243 -0.35218987 0.9006105
-0.76344335 -0.9878472 -1.2728382 -0.09547464 -0.606419 1.1673532 1.2201355 -1.9187354
-1.2214344 -2.045964 0.31688073 -0.904664 -0.024573997 0.17750022 1.491349 -0.6526911
-0.17048039 -1.107955 -0.780451 0.5645913 0.51000345 -1.6576731 -0.3841102 0.5765708

module.s4_layers.0.kernel.kernel.C f4 [2, 64, 32, 2]
00000000: 9edb e03e 86ff 8cbe 310e 6e3e 7d5d 9dbe
00000010: a9d4 96be d052 2dbe da7b 3fbf b24d 3a3e
00000020: 69ef 2ebf 02ad 32be 250c 113f c1d7 62bf
00000030: 5fc6 883e c430 6f3f 50f1 10bf 9345 c93f
00000040: bece c2be 6390 f0be 1d04 023f b662 f7bd
00000050: cbfa 8c3e 1052 3c3f 1265 4f3f 0ae1 10bf
00000060: 7d13 54bf 760a 913f 51a9 c73e 4401 d3be
00000070: 8ba4 83be fc3a 143f 0234 0fbf 32fd 62bf
00000080: 3cb4 b73e 74f7 2f3f a4a2 27be d8c7 ce3e
00000090: 454c babe 2d02 9ebf 2fe2 0e3f 5419 ed3e
000000a0: 4fe6 8e3c 0394 953f e19d 18bf d2cd 813d
000000b0: 55eb 203f 108b e6bc 09c4 8abe cf91 46bf
000000c0: 5ef7 033f b39a e53e d3bd f33e 53da e5be
000000d0: 986c 673e df94 823f b24e f23e 4508 8f3e
000000e0: fa7a 973d 481a 6ebf 543a 9bbe fe47 82be
000000f0: c470 103e a882 d6bd c05e 7a3f 8e29 753e
00000100: 82b8 a83e 3a48 aebd 543f 5c3f e0d6 1abf
00000110: 88b7 6b3e 702f 553f f0cb 22bf e15c 2a3f
00000120: 65e9 f13e ecd4 00c0 e5c8 b63f 8c07 44bf
00000130: af49 ee3e ce6c d53f 2877 f63e a264 203e
00000140: e209 1e3e c5b4 09bf 6825 693d 7b6c 55bf
00000150: 5ad3 84bf cbae b53f f8bd 1e3e 9814 843e
00000160: 2429 9b3d fc02 2abf 780a 713e a3e9 843f
00000170: cc51 8fbf 5e70 86bf 0bb9 633f 4622 b7ba
00000180: 52db 0b3e 2d58 8cbf d5ae bb3e 96b5 243e
00000190: c722 b63d 907c 17be 33c1 b83e 3e42 96bf
000001a0: f5c4 303f ccec 2940 b347 233e 21da d6be
000001b0: 5d1a 7abe 98c0 80bf 9679 27be 8fd7 e43e
000001c0: dc3e 463e 9979 2cbf a055 2e3d 2fa5 923f
000001d0: 59dc c13f 4d66 97bf e24d 67be 1581 913f
000001e0: 06f2 a0bf 96ef 0f3f 86fd 4e3e 666c 18bf
000001f0: b6d2 19be 5b73 48bd 1b61 833d 1827 62bd
00000200: d44c 73bf ba16 88bd 7d2e f13e 3305 47be
00000210: 82eb e9be 9e07 2b3f c8e2 4b3e 1e5d ecbe
00000220: b465 06c0 928f 613b fee3 d0be d5fc 52bf
00000230: 855b 7d3e d524 f33d 15fc 363f cbd7 fdbe
00000240: 94cb 0abf a26c 4d3f 9600 f33e d047 873f
00000250: 746a a1bf be5e 91bf 655f 553f 72ef 80be
00000260: 0253 b3bd e2b6 6cbf fda1 e83e da5d 04be
00000270: 3439 8fbe 686a e43e 66c2 41be bb63 8ebf
00000280: ec04 5f3f 2262 1a3e 2731 ba3f 3cc0 84bf
00000290: f796 5f3f 88e0 0f3f a917 993d d021 a7be
000002a0: 5d53 4c3e db57 0cbf 7afa 5dbe 3940 20bf
000002b0: 4a9c 2fbe b33c f8be d6fe 973e 778c de3d
000002c0: 46cf 523f 5858 683e 56fb 053f 2635 8b3f
000002d0: fd86 b1be 2266 063f 3021 47be bfec bb3f
000002e0: 9432 283d 1497 8a3e 05f9 6e3f adb2 b83f
000002f0: 449b 043f e5c8 a5bd 154d 273e 74a9 cabe
00000300: 695d 6d3f 17fa 26be 8be4 68bf e560 f0be
00000310: 8e38 443e 77fd 14bf a822 943e e36c a9be
00000320: 36bc a6be ad7d 1b3f 63e8 953f 0df7 5fbc
00000330: 7b3d 1ebf a5a6 663f f7ae fabe 61d6 d6be
00000340: 9400 9dbf acc3 723e 4164 08bf b4a7 e83e
00000350: bc83 56bf 741c e33f cf3e 70be d043 13bd
00000360: 288c 8f3f 5720 3ebf ec26 ca3e 9ef6 823f
00000370: c0ad b5bd 5a85 fcbf 62ee 1c3f ad3c c33e
00000380: f251 73be 77b7 23bf 974a bf3e c48b 6ebd
00000390: 20f8 1ebe 0bbd c03e 1140 b73d 633d c3bf
000003a0: cac4 0e3f 5a5f 313f 2e22 873f 473a 5b3f
000003b0: 12d2 2abf 9107 3a3f 4b18 dc3e d6f2 3ebf
000003c0: bbb9 713f 10f5 84bf b05b 98bf 2eb1 0a3f
000003d0: 4f49 0c3f 1659 12bf 5e73 8c3e 2dde d73e
000003e0: 78f8 8b3f 7144 febf 53b8 493f d252 0e3f
000003f0: 9d09 273f 4ef3 413f 409d 35be 6fcb 183f
0.43917555 -0.275387 0.23247601 -0.30735388 -0.29459122 -0.16926122 -0.7479836 0.18193701
-0.6833406 -0.1744881 0.56659156 -0.88610464 0.26713845 0.93433785 -0.56618214 1.5724357
-0.38048357 -0.46985158 0.50787526 -0.120793745 0.2753509 0.7356272 0.81013596 -0.5659338
-0.82842237 1.1331317 0.38996366 -0.41211903 -0.25711474 0.57902503 -0.5593873 -0.88667595
0.35879695 0.6873696 -0.16370636 0.40386844 -0.36386314 -1.2344414 0.5581388 0.46308386
0.017443804 1.1685795 -0.59615904 0.06338085 0.6285909 -0.028142482 -0.27102688 -0.77566236
0.5154933 0.4484459 0.47605762 -0.4489313 0.22600019 1.0201682 0.47325665 0.27935997
0.07396503 -0.9300885 -0.30317938 -0.2544555 0.14105517 -0.104741395 0.9780083 0.23941633
0.32953268 -0.0850987 0.8603413 -0.60484123 0.2301923 0.8327551 -0.63592434 0.6654797
0.47248378 -2.0129957 1.4280058 -0.76574016 0.4654059 1.667383 0.48137784 0.15663388
0.15433457 -0.5379146 0.05692044 -0.83368653 -1.0376999 1.4193968 0.15502155 0.25796962
0.07576206 -0.66410804 0.2353915 1.03838 -1.1196837 -1.0503042 0.8895423 -0.0013972006
0.13657883 -1.0964409 0.36656824 0.16084895 0.08893352 -0.1479361 0.360849 -1.1738966
0.6905053 2.655078 0.1594532 -0.41963294 -0.2442412 -1.0058775 -0.16354975 0.44695708
0.19359916 -0.67373043 0.042562127 1.145666 1.514537 -1.1828095 -0.22588304 1.1367518
-1.257386 0.56224954 0.20213899 -0.595404 -0.15021786 -0.048938137 0.06415006 -0.055213064
-0.95039105 -0.0664496 0.4710578 -0.19435577 -0.4568749 0.668085 0.19910729 -0.46164793
-2.0999575 0.003441785 -0.40798944 -0.8241704 0.24741943 0.118722595 0.71478397 -0.495787
-0.54216886 0.80243886 0.47461385 1.056879 -1.2610612 -1.1357038 0.83348686 -0.25182682
-0.08756067 -0.9246656 0.45436087 -0.12926427 -0.2797333 0.44612432 -0.18921813 -1.1124185
0.87116885 0.15076497 1.454625 -1.0371165 0.8733973 0.5620198 0.07475216 -0.32642984
0.19953676 -0.54821557 -0.2167758 -0.62597996 -0.17149463 -0.4848381 0.29686612 0.10866635
0.82347524 0.2268995 0.52336633 1.0875595 -0.346733 0.5249959 -0.19446254 1.4681624
0.04106386 0.27068388 0.93348724 1.4429528 0.51799417 -0.08094958 0.16337998 -0.39582407
0.9272066 -0.16306339 -0.9097373 -0.46948925 0.19162199 -0.58199257 0.2893269 -0.33090886
-0.3256547 0.6073864 1.1711544 -0.013669741 -0.6181256 0.9009803 -0.48961613 -0.41960433
-1.2265801 0.23707455 -0.53277975 0.45440447 -0.8379476 1.7743058 -0.2346146 -0.035953343
1.1214647 -0.74268097 0.3948282 1.0231512 -0.08871031 -1.9728196 0.61301243 0.3813223
-0.23761728 -0.6395182 0.37361595 -0.05823876 -0.1552434 0.37644228 0.089477666 -1.5253109
0.55769026 0.6928612 1.0557306 0.856358 -0.6672679 0.72667795 0.42987284 -0.7458929
0.9442403 -1.0387287 -1.1902981 0.54176605 0.5479936 -0.57167184 0.27431768 0.42161694
1.0935202 -1.9864637 0.7879688 0.55595124 0.65249044 0.7576188 -0.17735767 0.59685415

module.s4_layers.0.kernel.kernel.omega f4 [129, 2]
00000000: 0000 803f 0000 0080 43ec 7f3f af0a c9bc
00000010: 0fb1 7f3f 2ffb 48bd 6d4e 7f3f 05a9 96bd
00000020: 6dc4 7e3f 35bd c8bd 2413 7e3f 71b2 fabd
00000030: ac3a 7d3f 8340 16be 283b 7c3f a210 2fbe
00000040: bf14 7b3f c1c5 47be 9dc7 793f 125c 60be
00000050: f853 783f cbcf 78be 07ba 763f 938e 88be
00000060: 0bfa 743f 32a0 94be 4714 733f e49a a0be
00000070: 0809 713f d37c acbe 9ed8 6e3f 2944 b8be
00000080: 5f83 6c3f 15ef c3be a709 6a3f ca7b cfbe
00000090: d86b 673f 7fe8 dabe 59aa 643f 7433 e6be
000000a0: 98c5 613f e95a f1be 06be 5e3f 265d fcbe
000000b0: 1a94 5b3f 3c9c 03bf 5348 583f 9af5 08bf
000000c0: 31db 543f da39 0ebf 3d4d 513f 2a68 13bf
000000d0: 039f 4d3f bf7f 18bf 13d1 493f d17f 1dbf
000000e0: 04e4 453f 9967 22bf 70d8 413f 5636 27bf
000000f0: faae 3d3f 49eb 2bbf 4268 393f ba85 30bf
00000100: f304 353f f204 35bf ba85 303f 4068 39bf
00000110: 49eb 2b3f f8ae 3dbf 5636 273f 6fd8 41bf
00000120: 9967 223f 02e4 45bf d17f 1d3f 11d1 49bf
00000130: bf7f 183f 019f 4dbf 2a68 133f 3c4d 51bf
00000140: da39 0e3f 30db 54bf 9af5 083f 5248 58bf
00000150: 3d9c 033f 1994 5bbf 295d fc3e 04be 5ebf
00000160: ea5a f13e 96c5 61bf 7633 e63e 57aa 64bf
00000170: 80e8 da3e d76b 67bf cb7b cf3e a509 6abf
00000180: 14ef c33e 5d83 6cbf 2a44 b83e 9cd8 6ebf
00000190: d67c ac3e 0709 71bf e59a a03e 4614 73bf
000001a0: 33a0 943e 09fa 74bf 928e 883e 06ba 76bf
000001b0: cfcf 783e f753 78bf 195c 603e 9cc7 79bf
000001c0: c3c5 473e bd14 7bbf a710 2f3e 273b 7cbf
000001d0: 8440 163e ab3a 7dbf 7bb2 fa3d 2213 7ebf
000001e0: 44bd c83d 6cc4 7ebf 0aa9 963d 6c4e 7fbf
000001f0: 48fb 483d 0eb1 7fbf bd0a c93c 42ec 7fbf
00000200: 6821 a233 ffff 7fbf 6c0a c9bc 42ec 7fbf
00000210: 20fb 48bd 0eb1 7fbf f6a8 96bd 6d4e 7fbf
00000220: 30bd c8bd 6cc4 7ebf 66b2 fabd 2313 7ebf
00000230: 7a40 16be ab3a 7dbf 9d10 2fbe 273b 7cbf
00000240: b9c5 47be be14 7bbf 0f5c 60be 9dc7 79bf
00000250: c5cf 78be f753 78bf 8d8e 88be 07ba 76bf
00000260: 2ea0 94be 0afa 74bf e09a a0be 4714 73bf
00000270: d17c acbe 0709 71bf 2544 b8be 9dd8 6ebf
00000280: 0fef c3be 5e83 6cbf c77b cfbe a609 6abf
00000290: 7fe8 dabe d76b 67bf 6e33 e6be 59aa 64bf
000002a0: e55a f1be 97c5 61bf 255d fcbe 05be 5ebf
000002b0: 399c 03bf 1b94 5bbf 98f5 08bf 5348 58bf
000002c0: d839 0ebf 31db 54bf 2968 13bf 3c4d 51bf
000002d0: bd7f 18bf 039f 4dbf cf7f 1dbf 12d1 49bf
000002e0: 9867 22bf 03e4 45bf 5236 27bf 72d8 41bf
000002f0: 47eb 2bbf faae 3dbf b985 30bf 4168 39bf
00000300: f204 35bf f204 35bf 3f68 39bf bc85 30bf
00000310: f7ae 3dbf 4aeb 2bbf 6ed8 41bf 5536 27bf
00000320: ffe3 45bf 9b67 22bf 0fd1 49bf d27f 1dbf
00000330: 009f 4dbf c07f 18bf 394d 51bf 2c68 13bf
00000340: 2edb 54bf db39 0ebf 5048 58bf 9bf5 08bf
00000350: 1894 5bbf 3c9c 03bf 02be 5ebf 2a5d fcbe
00000360: 95c5 61bf eb5a f1be 57aa 64bf 7433 e6be
00000370: d46b 67bf 85e8 dabe a409 6abf cc7b cfbe
00000380: 5c83 6cbf 15ef c3be 9ad8 6ebf 3044 b8be
00000390: 0509 71bf d87c acbe 4514 73bf e79a a0be
000003a0: 09fa 74bf 32a0 94be 04ba 76bf 998e 88be
000003b0: f553 78bf d2cf 78be 9bc7 79bf 155c 60be
000003c0: bc14 7bbf cfc5 47be 253b 7cbf ac10 2fbe
000003d0: aa3a 7dbf 8940 16be 2113 7ebf 93b2 fabd
000003e0: 6bc4 7ebf 4dbd c8bd 6b4e 7fbf 14a9 96bd
000003f0: 0db1 7fbf 3bfb 48bd 41ec 7fbf 240b c9bc
1.0 -0.0 0.9996988 -0.024541227 0.99879545 -0.049067672 0.99729043 -0.07356457
0.9951847 -0.098017134 0.99247956 -0.12241066 0.9891765 -0.14673047 0.98527765 -0.17096189
0.9807853 -0.19509031 0.9757021 -0.21910122 0.97003126 -0.24298017 0.96377605 -0.26671275
0.95694035 -0.2902847 0.94952816 -0.31368172 0.94154406 -0.33688983 0.9329928 -0.35989502
0.92387956 -0.38268343 0.9142098 -0.4052413 0.9039893 -0.42755505 0.8932243 -0.4496113
0.8819213 -0.4713967 0.870087 -0.49289817 0.8577286 -0.5141027 0.8448536 -0.5349976
0.8314696 -0.55557024 0.8175848 -0.57580817 0.8032076 -0.59569925 0.78834647 -0.6152316
0.7730105 -0.6343933 0.7572088 -0.65317285 0.7409512 -0.6715589 0.7242471 -0.6895405
0.70710677 -0.7071067 0.6895405 -0.724247 0.6715589 -0.74095106 0.65317285 -0.75720876
0.6343933 -0.7730104 0.6152316 -0.78834635 0.59569925 -0.80320746 0.57580817 -0.81758475
0.55557024 -0.83146954 0.5349976 -0.8448535 0.51410276 -0.85772854 0.49289826 -0.8700869
0.47139674 -0.8819212 0.44961137 -0.8932242 0.42755508 -0.90398926 0.40524134 -0.91420966
0.3826834 -0.92387944 0.35989505 -0.9329927 0.33688992 -0.941544 0.31368175 -0.9495281
0.29028472 -0.95694023 0.26671273 -0.963776 0.24298023 -0.9700312 0.21910132 -0.97570205
0.19509034 -0.9807852 0.17096196 -0.9852776 0.14673048 -0.98917645 0.12241074 -0.99247944
0.098017246 -0.99518466 0.073564604 -0.9972904 0.049067765 -0.9987954 0.024541253 -0.99969876
7.5497894e-08 -0.99999994 -0.024541102 -0.99969876 -0.049067616 -0.9987954 -0.073564455 -0.99729043
-0.0980171 -0.99518466 -0.12241058 -0.9924795 -0.14673033 -0.98917645 -0.17096181 -0.9852776
-0.19509019 -0.98078525 -0.21910118 -0.9757021 -0.24298008 -0.9700312 -0.26671258 -0.96377605
-0.29028457 -0.9569403 -0.3136816 -0.94952816 -0.33688977 -0.941544 -0.3598949 -0.93299276
-0.38268325 -0.9238795 -0.40524122 -0.9142097 -0.42755505 -0.90398926 -0.44961113 -0.8932243
-0.4713966 -0.88192123 -0.49289814 -0.87008697 -0.5141025 -0.85772866 -0.53499746 -0.8448536
-0.5555701 -0.8314696 -0.5758081 -0.81758475 -0.59569913 -0.8032076 -0.61523145 -0.7883464
-0.6343932 -0.77301043 -0.6531726 -0.75720894 -0.6715588 -0.7409512 -0.68954045 -0.72424704
-0.7071067 -0.7071067 -0.7242469 -0.6895406 -0.740951 -0.671559 -0.7572087 -0.6531728
-0.7730102 -0.6343934 -0.78834623 -0.61523163 -0.8032074 -0.5956993 -0.8175846 -0.5758083
-0.8314694 -0.5555703 -0.8448534 -0.53499764 -0.8577285 -0.5141027 -0.8700868 -0.4928983
-0.8819211 -0.47139677 -0.8932242 -0.4496113 -0.9039891 -0.42755523 -0.9142096 -0.40524137
-0.9238794 -0.38268343 -0.9329926 -0.35989523 -0.9415439 -0.33688998 -0.94952804 -0.3136818
-0.95694023 -0.2902847 -0.9637759 -0.26671293 -0.9700311 -0.24298027 -0.975702 -0.21910127
-0.98078513 -0.19509052 -0.9852775 -0.17096204 -0.9891764 -0.14673056 -0.9924794 -0.122410916
-0.9951846 -0.09801731 -0.9972903 -0.07356468 -0.99879533 -0.049067717 -0.9996987 -0.024541445

module.s4_layers.0.kernel.kernel.z f4 [129, 2]
00000000: 0000 0000 0000 0000 6605 8c30 6f12 c93c
00000010: 2c23 e431 311a 493d da46 cc32 58dd 963d
00000020: 164f 0032 3d39 c93d 4edc e4b2 ada4 fb3d
00000030: 4cb2 80b0 ce11 173e c02f 21b2 fb5c 303e
00000040: 432c e2b2 dab5 493e 3ec1 e232 721e 633e
00000050: b7eb c2b1 c198 7c3e 705c 8232 6b13 8b3e
00000060: 4385 a3b2 64e5 973e 5650 0333 52c3 a43e
00000070: 94da 8332 4cae b13e e76f 04b2 62a7 be3e
00000080: c098 c7b2 aeaf cb3e de9a c8b2 4ec8 d83e
00000090: 0000 0000 66f2 e53e 1438 0732 1e2f f33e
000000a0: fc07 88b2 d33f 003f 8a56 cdb2 9af2 063f
000000b0: 7dcd 0933 81b0 0d3f 0000 0000 2b7a 143f
000000c0: 0000 0000 4150 1b3f a4d8 8c32 6b33 223f
000000d0: 0000 0000 5524 293f 2426 8fb2 ba23 303f
000000e0: 1f63 90b2 4f32 373f 83af 9132 d450 3e3f
000000f0: ca0b 93b2 0c80 453f 7a78 9432 c4c0 4c3f
00000100: a073 bb33 cb13 543f df47 e333 fe79 5b3f
00000110: 8426 9933 37f4 623f 8fda 9a33 6383 6a3f
00000120: 10a2 9c33 6f28 723f c17d 9e33 57e4 793f
00000130: 656e 2034 0ddc 803f d274 a233 62d2 843f
00000140: e391 a433 b8d5 883f 88c6 a633 a0e6 8c3f
00000150: ba13 a933 b005 913f 817a ab33 8433 953f
00000160: fffb ad33 c470 993f 5c99 3034 18be 9d3f
00000170: dc53 b333 361c a23f d52c b633 d88b a63f
00000180: 45dc 0a34 c20d ab3f f82f 0d34 bfa2 af3f
00000190: ed9d 0f34 a74b b43f 7527 1234 5f09 b93f
000001a0: eccd 1434 cedc bd3f 1319 ca33 f2c6 c23f
000001b0: e5f4 4d33 cbc8 c73f a3fd d133 70e3 cc3f
000001c0: b435 d633 0118 d23f aa9f da33 b067 d73f
000001d0: 513e 5f33 bed3 dc3f 9d14 6434 7f5d e23f
000001e0: c625 e933 5e06 e83f 3c75 6e34 d3cf ed3f
000001f0: b406 f433 74bb f33f 32de f933 edca f93f
00000200: 0000 0034 ffff ff3f 98d4 4434 472e 0340
00000210: 39e8 4934 4f71 0640 0000 0000 23ca 0940
00000220: dae8 0d34 ea39 0d40 0000 0000 d7c1 1040
00000230: 4e04 6134 3763 1440 fc97 6734 6b1f 1840
00000240: 2706 1f34 ebf7 1b40 e7e9 a333 51ee 1f40
00000250: 48a0 7d34 4f04 2440 708e 2e34 b73b 2840
00000260: f743 8734 8796 2c40 75e0 8b34 d916 3140
00000270: 9f07 c134 fcbe 3540 9af7 c734 6491 3a40
00000280: 0383 9b34 c590 3f40 9d36 5734 08c0 4440
00000290: 329a 5f34 5422 4a40 1890 e834 17bb 4f40
000002a0: c625 f234 188e 5540 2f6a 7c34 719f 5b40
000002b0: 0db7 8334 98f3 6140 5673 ce34 858f 6840
000002c0: 3701 9034 9c78 6f40 0f50 e234 dab4 7640
000002d0: 484c 1e34 d24a 7e40 7455 2635 f020 8340
000002e0: 2e0d af34 0f51 8740 a587 b834 48ba 8b40
000002f0: 21dc c234 b461 9040 0d9c 1a35 fb4c 9540
00000300: 2b32 3f35 7982 9a40 ae0e 1135 6509 a040
00000310: 0f4b 3935 ebe9 a540 8c46 9435 512d ac40
00000320: f798 9e35 33de b240 d616 aa35 c508 ba40
00000330: 66e9 7335 11bb c140 155a c535 6305 ca40
00000340: 6ce0 bd35 cbfa d240 b741 ce35 96b1 dc40
00000350: 9c09 fd35 2a44 e740 51db 0236 e8d1 f240
00000360: 5311 fe35 9380 ff40 cad8 1536 e3be 0641
00000370: 9b7a 3b36 9d80 0e41 50d8 2e36 f527 1741
00000380: b69a 7936 f6df 2041 90c6 8d36 20df 2b41
00000390: 45f6 9936 a16b 3841 0299 9436 29e1 4641
000003a0: bd25 9136 f7b9 5741 0b5b ff36 b99c 6b41
000003b0: 917f 1e37 79b9 8141 8b33 3937 dd46 9041
000003c0: 34a8 3c37 5773 a241 f641 a037 56cc b941
000003d0: d63d a037 14e8 d841 477d 0538 3e37 0242
000003e0: 32d3 3d38 edd7 2242 1dae d038 7433 5942
000003f0: f9d7 5639 18f1 a242 cddc 473a 0bf7 2243
0.0 0.0 1.0187875e-09 0.024544923 6.639672e-09 0.049097244 2.3780945e-08 0.07366437
7.468563e-09 0.098253705 -2.6642876e-08 0.12287269 -9.363901e-10 0.14752886 -9.3822905e-09 0.17222969
-2.632999e-08 0.19698277 2.6397739e-08 0.22179583 -5.672941e-09 0.24667646 1.5176028e-08 0.27163252
-1.9036298e-08 0.296672 3.057388e-08 0.32180268 1.5349805e-08 0.3470329 -7.708855e-09 0.37237078
-2.3236112e-08 0.3978247 -2.335349e-08 0.4234032 0.0 0.44911498 7.870785e-09 0.47496885
-1.5836115e-08 0.5009739 -2.3904494e-08 0.5271393 3.208469e-08 0.5534745 0.0 0.57998914
0.0 0.6066933 1.6396662e-08 0.6335971 0.0 0.66071063 -1.6664735e-08 0.68804514
-1.6808881e-08 0.7156114 1.6960035e-08 0.74342084 -1.7118413e-08 0.7714851 1.7284254e-08 0.79981637
8.728898e-08 0.828427 1.05835845e-07 0.8573302 7.131624e-08 0.8865389 7.2109394e-08 0.9160673
7.293795e-08 0.94592947 7.380323e-08 0.97614044 1.4941322e-07 1.0067154 7.564962e-08 1.0376704
7.663382e-08 1.0690222 7.76609e-08 1.1007881 7.873264e-08 1.1329861 7.985091e-08 1.1656346
8.101778e-08 1.1987538 1.6447069e-07 1.2323637 8.350591e-08 1.2664859 8.48319e-08 1.3011427
1.2932385e-07 1.3363574 1.3149099e-07 1.3721541 1.3375366e-07 1.4085587 1.3611664e-07 1.4455985
1.3858488e-07 1.4833009 9.410919e-08 1.5216963 4.7953012e-08 1.5608152 9.778457e-08 1.6006908
9.97492e-08 1.6413575 1.0180459e-07 1.6828518 5.197791e-08 1.7252119 2.1241654e-07 1.7684783
1.0856779e-07 1.8126943 2.2208127e-07 1.8579048 1.1363355e-07 1.9041581 1.1635383e-07 1.9515053
1.1920929e-07 1.9999999 1.8331264e-07 2.0496995 1.8804066e-07 2.1006658 0.0 2.1529624
1.3216359e-07 2.2066598 0.0 2.261831 2.0956324e-07 2.3185556 2.1568843e-07 2.3769176
1.4810267e-07 2.4370067 7.6328256e-08 2.4989207 2.3620771e-07 2.562763 1.6256831e-07 2.6286447
2.519516e-07 2.6966875 2.6054082e-07 2.7670195 3.5954596e-07 2.8397818 3.7246792e-07 2.915124
2.8966323e-07 2.993211 2.0043304e-07 3.0742207 2.082459e-07 3.1583452 4.331821e-07 3.245794
4.5103496e-07 3.3367977 2.3507958e-07 3.4316065 2.4533838e-07 3.5304928 3.8454408e-07 3.6337597
2.6822974e-07 3.7417364 4.215403e-07 3.8547883 1.4742648e-07 3.9733167 6.196417e-07 4.0977707
3.260588e-07 4.228645 3.4371365e-07 4.3664894 3.629548e-07 4.5119267 5.7596554e-07 4.665647
7.122605e-07 4.828427 5.403807e-07 5.001147 6.9027095e-07 5.1848044 1.1047391e-06 5.380532
1.1816436e-06 5.589624 1.2672633e-06 5.8135705 9.0864194e-07 6.0540853 1.4703861e-06 6.3131576
1.4146913e-06 6.5931144 1.5367322e-06 6.896678 1.8852766e-06 7.227071 1.9499169e-06 7.5881233
1.8929517e-06 7.984445 2.2328918e-06 8.421603 2.7936537e-06 8.9064 2.605393e-06 9.447255
3.7193945e-06 10.054678 4.225243e-06 10.741974 4.588425e-06 11.526277 4.428556e-06 12.429971
4.32573e-06 13.482902 7.610191e-06 14.725762 9.447235e-06 16.215563 1.103886e-05 18.034601
1.1244836e-05 20.306318 1.9104202e-05 23.224773 1.9102281e-05 27.11332 3.1826345e-05 32.553947
4.5257802e-05 40.710865 9.950644e-05 54.300247 0.00020489086 81.47089 0.00076241494 162.96501

module.s4_layers.0.kernel.kernel.log_dt f4 [64]
00000000: c48b 9ac0 951c d8c0 8cef 45c0 c845 a8c0
00000010: ba47 7dc0 c618 8cc0 4c42 39c0 8a76 14c0
00000020: 7d41 67c0 b62d 60c0 6174 cac0 da49 96c0
00000030: ca79 2fc0 a805 7cc0 8c69 dbc0 aa87 b1c0
00000040: 5ea3 27c0 9a35 83c0 8a0e 53c0 1ed4 c5c0
00000050: 2c92 9fc0 a03a 88c0 f843 8fc0 32b8 9fc0
00000060: 2309 d9c0 6cef 16c0 acb5 c8c0 06a2 d5c0
00000070: e518 d5c0 924a c3c0 3832 a6c0 9796 d8c0
00000080: f913 7fc0 5680 82c0 f6a9 85c0 1be9 81c0
00000090: c973 bdc0 a397 56c0 4ce8 84c0 222c 3cc0
000000a0: 4667 aec0 9e5a 82c0 5125 48c0 7c3f 91c0
000000b0: 4c03 3ac0 f9dd 51c0 3577 87c0 23ce 84c0
000000c0: 229c 95c0 fb96 77c0 f83e aec0 7641 d4c0
000000d0: b26e 2cc0 acc7 b2c0 2b95 6cc0 5b2f 7ec0
000000e0: e19a a4c0 7125 87c0 fdad dcc0 e059 26c0
000000f0: f29b acc0 198f d1c0 2d80 3dc0 7200 61c0
-4.829561 -6.753489 -3.0927458 -5.258518 -3.9575028 -4.378024 -2.8946714 -2.319735
-3.613372 -3.50279 -6.3267064 -4.696515 -2.7418084 -3.9378452 -6.856634 -5.5478106
-2.6193461 -4.100293 -3.2977624 -6.182143 -4.9865932 -4.2571564 -4.477047 -4.991235
-6.7823653 -2.3583632 -6.2721767 -6.6760283 -6.659289 -6.102853 -5.19363 -6.7683825
-3.985594 -4.078166 -4.176997 -4.0597053 -5.920384 -3.3530052 -4.1533566 -2.9401937
-5.4501066 -4.0735617 -3.1272776 -4.5389996 -2.9064512 -3.2791731 -4.2333016 -4.150163
-4.675309 -3.86859 -5.4451866 -6.632991 -2.6942563 -5.586874 -3.6966045 -3.9716403
-5.143906 -4.2233205 -6.896239 -2.5992355 -5.3940363 -6.548718 -2.9609482 -3.5156522

module.s4_layers.0.kernel.kernel.B f4 [1, 64, 32, 2]
00000000: 1eda fdbf 72d0 22c2 f9ac fc3f f762 5741
00000010: 605f fa3f d276 fe40 2807 f73f 929b b140
00000020: 7ac4 f23f 9803 8640 d6bb ed3f 944b 5340
00000030: dc13 e8bf f827 2bc0 b1f2 e1bf 6d24 0dc0
00000040: f87b db3f 1ca4 eb3f c360 f03f 1be6 a33f
00000050: 062f e33f 5c12 8abf 465b c43f 0fc9 923f
00000060: e443 d5bf 14f6 1f3f d654 eabe 3eb5 ccbf
00000070: 7755 5ebf e256 a6bf f52d b1bf d458 02bf
00000080: 1d18 3abf 40a6 98bf 2406 07be b1f1 a8bf
00000090: 8e9a 9fbf a776 4cbe d3b5 95bf 4250 93be
000000a0: f015 533e 60e3 90bf bad0 8cbf 4021 3a3c
000000b0: aa6e a7be 6b14 80bf 83a3 293f f23f 423f
000000c0: c856 a0be c653 693f 6216 6e3e bd24 643f
000000d0: 4f18 05bf 6750 353f de1b e43d dcfc 533f
000000e0: 5780 263f 0e08 e63e e370 363f c7e2 4fbe
000000f0: f999 063f b60f 8ebe 2b9e 1b3f 3b4e 9c3e
00000100: 1eda fdbf 72d0 22c2 f9ac fc3f f762 5741
00000110: 605f fa3f d276 fe40 2807 f73f 929b b140
00000120: 7ac4 f23f 9803 8640 d6bb ed3f 944b 5340
00000130: dc13 e8bf f827 2bc0 b1f2 e1bf 6d24 0dc0
00000140: f87b db3f 1ca4 eb3f c360 f03f 1be6 a33f
00000150: 062f e33f 5c12 8abf 465b c43f 0fc9 923f
00000160: e443 d5bf 14f6 1f3f d654 eabe 3eb5 ccbf
00000170: 7755 5ebf e256 a6bf f52d b1bf d458 02bf
00000180: 1d18 3abf 40a6 98bf 2406 07be b1f1 a8bf
00000190: 8e9a 9fbf a776 4cbe d3b5 95bf 4250 93be
000001a0: f015 533e 60e3 90bf bad0 8cbf 4021 3a3c
000001b0: aa6e a7be 6b14 80bf 83a3 293f f23f 423f
000001c0: c856 a0be c653 693f 6216 6e3e bd24 643f
000001d0: 4f18 05bf 6750 353f de1b e43d dcfc 533f
000001e0: 5780 263f 0e08 e63e e370 363f c7e2 4fbe
000001f0: f999 063f b60f 8ebe 2b9e 1b3f 3b4e 9c3e
00000200: 1eda fdbf 72d0 22c2 f9ac fc3f f762 5741
00000210: 605f fa3f d276 fe40 2807 f73f 929b b140
00000220: 7ac4 f23f 9803 8640 d6bb ed3f 944b 5340
00000230: dc13 e8bf f827 2bc0 b1f2 e1bf 6d24 0dc0
00000240: f87b db3f 1ca4 eb3f c360 f03f 1be6 a33f
00000250: 062f e33f 5c12 8abf 465b c43f 0fc9 923f
00000260: e443 d5bf 14f6 1f3f d654 eabe 3eb5 ccbf
00000270: 7755 5ebf e256 a6bf f52d b1bf d458 02bf
00000280: 1d18 3abf 40a6 98bf 2406 07be b1f1 a8bf
00000290: 8e9a 9fbf a776 4cbe d3b5 95bf 4250 93be
000002a0: f015 533e 60e3 90bf bad0 8cbf 4021 3a3c
000002b0: aa6e a7be 6b14 80bf 83a3 293f f23f 423f
000002c0: c856 a0be c653 693f 6216 6e3e bd24 643f
000002d0: 4f18 05bf 6750 353f de1b e43d dcfc 533f
000002e0: 5780 263f 0e08 e63e e370 363f c7e2 4fbe
000002f0: f999 063f b60f 8ebe 2b9e 1b3f 3b4e 9c3e
00000300: 1eda fdbf 72d0 22c2 f9ac fc3f f762 5741
00000310: 605f fa3f d276 fe40 2807 f73f 929b b140
00000320: 7ac4 f23f 9803 8640 d6bb ed3f 944b 5340
00000330: dc13 e8bf f827 2bc0 b1f2 e1bf 6d24 0dc0
00000340: f87b db3f 1ca4 eb3f c360 f03f 1be6 a33f
00000350: 062f e33f 5c12 8abf 465b c43f 0fc9 923f
00000360: e443 d5bf 14f6 1f3f d654 eabe 3eb5 ccbf
00000370: 7755 5ebf e256 a6bf f52d b1bf d458 02bf
00000380: 1d18 3abf 40a6 98bf 2406 07be b1f1 a8bf
00000390: 8e9a 9fbf a776 4cbe d3b5 95bf 4250 93be
000003a0: f015 533e 60e3 90bf bad0 8cbf 4021 3a3c
000003b0: aa6e a7be 6b14 80bf 83a3 293f f23f 423f
000003c0: c856 a0be c653 693f 6216 6e3e bd24 643f
000003d0: 4f18 05bf 6750 353f de1b e43d dcfc 533f
000003e0: 5780 263f 0e08 e63e e370 363f c7e2 4fbe
000003f0: f999 063f b60f 8ebe 2b9e 1b3f 3b4e 9c3e
-1.9832189 -40.70356 1.9740287 13.461661 1.9560356 7.9520044 1.9299059 5.5502405
1.896621 4.1879387 1.8572948 3.301488 -1.8131061 -2.6743145 -1.7652189 -2.2053483
1.7147207 1.8409457 1.8779529 1.2804598 1.7748725 -1.0786853 1.5340354 1.1467608
-1.6661344 0.6248486 -0.4576785 -1.5992811 -0.8684916 -1.2995265 -1.384215 -0.5091679
-0.72693044 -1.1925735 -0.13185936 -1.3198758 -1.2469041 -0.19967137 -1.1696113 -0.2877217
0.20613837 -1.1319389 -1.1001198 0.0113604665 -0.32701617 -1.0006231 0.66265124 0.7587882
-0.3131621 0.91143453 0.23250726 0.8911856 -0.51990217 0.7082581 0.11138128 0.8280771
0.6503958 0.4492802 0.71266 -0.20301352 0.52578694 -0.27746361 0.6078822 0.30528435
-1.9832189 -40.70356 1.9740287 13.461661 1.9560356 7.9520044 1.9299059 5.5502405
1.896621 4.1879387 1.8572948 3.301488 -1.8131061 -2.6743145 -1.7652189 -2.2053483
1.7147207 1.8409457 1.8779529 1.2804598 1.7748725 -1.0786853 1.5340354 1.1467608
-1.6661344 0.6248486 -0.4576785 -1.5992811 -0.8684916 -1.2995265 -1.384215 -0.5091679
-0.72693044 -1.1925735 -0.13185936 -1.3198758 -1.2469041 -0.19967137 -1.1696113 -0.2877217
0.20613837 -1.1319389 -1.1001198 0.0113604665 -0.32701617 -1.0006231 0.66265124 0.7587882
-0.3131621 0.91143453 0.23250726 0.8911856 -0.51990217 0.7082581 0.11138128 0.8280771
0.6503958 0.4492802 0.71266 -0.20301352 0.52578694 -0.27746361 0.6078822 0.30528435
-1.9832189 -40.70356 1.9740287 13.461661 1.9560356 7.9520044 1.9299059 5.5502405
1.896621 4.1879387 1.8572948 3.301488 -1.8131061 -2.6743145 -1.7652189 -2.2053483
1.7147207 1.8409457 1.8779529 1.2804598 1.7748725 -1.0786853 1.5340354 1.1467608
-1.6661344 0.6248486 -0.4576785 -1.5992811 -0.8684916 -1.2995265 -1.384215 -0.5091679
-0.72693044 -1.1925735 -0.13185936 -1.3198758 -1.2469041 -0.19967137 -1.1696113 -0.2877217
0.20613837 -1.1319389 -1.1001198 0.0113604665 -0.32701617 -1.0006231 0.66265124 0.7587882
-0.3131621 0.91143453 0.23250726 0.8911856 -0.51990217 0.7082581 0.11138128 0.8280771
0.6503958 0.4492802 0.71266 -0.20301352 0.52578694 -0.27746361 0.6078822 0.30528435
-1.9832189 -40.70356 1.9740287 13.461661 1.9560356 7.9520044 1.9299059 5.5502405
1.896621 4.1879387 1.8572948 3.301488 -1.8131061 -2.6743145 -1.7652189 -2.2053483
1.7147207 1.8409457 1.8779529 1.2804598 1.7748725 -1.0786853 1.5340354 1.1467608
-1.6661344 0.6248486 -0.4576785 -1.5992811 -0.8684916 -1.2995265 -1.384215 -0.5091679
-0.72693044 -1.1925735 -0.13185936 -1.3198758 -1.2469041 -0.19967137 -1.1696113 -0.2877217
0.20613837 -1.1319389 -1.1001198 0.0113604665 -0.32701617 -1.0006231 0.66265124 0.7587882
-0.3131621 0.91143453 0.23250726 0.8911856 -0.51990217 0.7082581 0.11138128 0.8280771
0.6503958 0.4492802 0.71266 -0.20301352 0.52578694 -0.27746361 0.6078822 0.30528435

module.s4_layers.0.kernel.kernel.P f4 [1, 64, 32, 2]
00000000: 5580 b3bf 0b41 e6c1 35ab b23f 214d 1841
00000010: 480a b13f f0ee b340 d8ac ae3f d82c 7b40
00000020: 9ea9 ab3f 4686 3d40 681a a83f 8268 1540
00000030: 891a a4bf 2a0d f2bf fbc4 9fbf f49a c7bf
00000040: e732 9b3f 969f a63f 10f9 a93f b6c9 673f
00000050: a6a4 a03f 5143 43bf 57d8 8a3f f795 4f3f
00000060: 22cd 96bf 1f38 e23e 85b2 a5be 1bc0 90bf
00000070: ba36 1dbf 483d 6bbf d691 7abf b556 b8be
00000080: af96 03bf fce0 57bf dcf3 bebd 51ec 6ebf
00000090: b6b6 61bf f593 10be eeb8 53bf 1c55 50be
000000a0: a042 153e 26e7 4cbf 9c24 47bf 209c 033c
000000b0: 00c9 6cbe d421 35bf cce7 ef3e f85a 093f
000000c0: dec0 62be bcfc 243f 685a 283e 6452 213f
000000d0: 7a39 bcbe 5a35 003f 094c a13d e5e5 153f
000000e0: f077 eb3e 1ea8 a23e 5601 013f 56ff 12be
000000f0: f25a be3e b8e7 48be b313 dc3e af0c 5d3e
00000100: 5580 b3bf 0b41 e6c1 35ab b23f 214d 1841
00000110: 480a b13f f0ee b340 d8ac ae3f d82c 7b40
00000120: 9ea9 ab3f 4686 3d40 681a a83f 8268 1540
00000130: 891a a4bf 2a0d f2bf fbc4 9fbf f49a c7bf
00000140: e732 9b3f 969f a63f 10f9 a93f b6c9 673f
00000150: a6a4 a03f 5143 43bf 57d8 8a3f f795 4f3f
00000160: 22cd 96bf 1f38 e23e 85b2 a5be 1bc0 90bf
00000170: ba36 1dbf 483d 6bbf d691 7abf b556 b8be
00000180: af96 03bf fce0 57bf dcf3 bebd 51ec 6ebf
00000190: b6b6 61bf f593 10be eeb8 53bf 1c55 50be
000001a0: a042 153e 26e7 4cbf 9c24 47bf 209c 033c
000001b0: 00c9 6cbe d421 35bf cce7 ef3e f85a 093f
000001c0: dec0 62be bcfc 243f 685a 283e 6452 213f
000001d0: 7a39 bcbe 5a35 003f 094c a13d e5e5 153f
000001e0: f077 eb3e 1ea8 a23e 5601 013f 56ff 12be
000001f0: f25a be3e b8e7 48be b313 dc3e af0c 5d3e
00000200: 5580 b3bf 0b41 e6c1 35ab b23f 214d 1841
00000210: 480a b13f f0ee b340 d8ac ae3f d82c 7b40
00000220: 9ea9 ab3f 4686 3d40 681a a83f 8268 1540
00000230: 891a a4bf 2a0d f2bf fbc4 9fbf f49a c7bf
00000240: e732 9b3f 969f a63f 10f9 a93f b6c9 673f
00000250: a6a4 a03f 5143 43bf 57d8 8a3f f795 4f3f
00000260: 22cd 96bf 1f38 e23e 85b2 a5be 1bc0 90bf
00000270: ba36 1dbf 483d 6bbf d691 7abf b556 b8be
00000280: af96 03bf fce0 57bf dcf3 bebd 51ec 6ebf
00000290: b6b6 61bf f593 10be eeb8 53bf 1c55 50be
000002a0: a042 153e 26e7 4cbf 9c24 47bf 209c 033c
000002b0: 00c9 6cbe d421 35bf cce7 ef3e f85a 093f
000002c0: dec0 62be bcfc 243f 685a 283e 6452 213f
000002d0: 7a39 bcbe 5a35 003f 094c a13d e5e5 153f
000002e0: f077 eb3e 1ea8 a23e 5601 013f 56ff 12be
000002f0: f25a be3e b8e7 48be b313 dc3e af0c 5d3e
00000300: 5580 b3bf 0b41 e6c1 35ab b23f 214d 1841
00000310: 480a b13f f0ee b340 d8ac ae3f d82c 7b40
00000320: 9ea9 ab3f 4686 3d40 681a a83f 8268 1540
00000330: 891a a4bf 2a0d f2bf fbc4 9fbf f49a c7bf
00000340: e732 9b3f 969f a63f 10f9 a93f b6c9 673f
00000350: a6a4 a03f 5143 43bf 57d8 8a3f f795 4f3f
00000360: 22cd 96bf 1f38 e23e 85b2 a5be 1bc0 90bf
00000370: ba36 1dbf 483d 6bbf d691 7abf b556 b8be
00000380: af96 03bf fce0 57bf dcf3 bebd 51ec 6ebf
00000390: b6b6 61bf f593 10be eeb8 53bf 1c55 50be
000003a0: a042 153e 26e7 4cbf 9c24 47bf 209c 033c
000003b0: 00c9 6cbe d421 35bf cce7 ef3e f85a 093f
000003c0: dec0 62be bcfc 243f 685a 283e 6452 213f
000003d0: 7a39 bcbe 5a35 003f 094c a13d e5e5 153f
000003e0: f077 eb3e 1ea8 a23e 5601 013f 56ff 12be
000003f0: f25a be3e b8e7 48be b313 dc3e af0c 5d3e
-1.4023539 -28.78176 1.3958498 9.51883 1.3831263 5.622917 1.3646498 3.924612
1.3411138 2.9613204 1.3133059 2.3345037 -1.2820598 -1.8910267 -1.2481989 -1.5594163
1.2124909 1.3017452 1.3279133 0.9054216 1.2550247 -0.7627459 1.0847272 0.81088203
-1.1781352 0.44183442 -0.32362762 -1.1308626 -0.6141163 -0.9189038 -0.9787878 -0.36003652
-0.514018 -0.84327674 -0.09323856 -0.9332934 -0.8816942 -0.14118941 -0.82704055 -0.20344967
0.14576197 -0.80040205 -0.77790236 0.008032829 -0.2312355 -0.7075474 0.46856534 0.5365443
-0.22143885 0.6444814 0.16440737 0.63016343 -0.367626 0.5008141 0.07875831 0.58553916
0.45989943 0.31768888 0.50392663 -0.14355215 0.3717876 -0.19619644 0.4298378 0.2158687
-1.4023539 -28.78176 1.3958498 9.51883 1.3831263 5.622917 1.3646498 3.924612
1.3411138 2.9613204 1.3133059 2.3345037 -1.2820598 -1.8910267 -1.2481989 -1.5594163
1.2124909 1.3017452 1.3279133 0.9054216 1.2550247 -0.7627459 1.0847272 0.81088203
-1.1781352 0.44183442 -0.32362762 -1.1308626 -0.6141163 -0.9189038 -0.9787878 -0.36003652
-0.514018 -0.84327674 -0.09323856 -0.9332934 -0.8816942 -0.14118941 -0.82704055 -0.20344967
0.14576197 -0.80040205 -0.77790236 0.008032829 -0.2312355 -0.7075474 0.46856534 0.5365443
-0.22143885 0.6444814 0.16440737 0.63016343 -0.367626 0.5008141 0.07875831 0.58553916
0.45989943 0.31768888 0.50392663 -0.14355215 0.3717876 -0.19619644 0.4298378 0.2158687
-1.4023539 -28.78176 1.3958498 9.51883 1.3831263 5.622917 1.3646498 3.924612
1.3411138 2.9613204 1.3133059 2.3345037 -1.2820598 -1.8910267 -1.2481989 -1.5594163
1.2124909 1.3017452 1.3279133 0.9054216 1.2550247 -0.7627459 1.0847272 0.81088203
-1.1781352 0.44183442 -0.32362762 -1.1308626 -0.6141163 -0.9189038 -0.9787878 -0.36003652
-0.514018 -0.84327674 -0.09323856 -0.9332934 -0.8816942 -0.14118941 -0.82704055 -0.20344967
0.14576197 -0.80040205 -0.77790236 0.008032829 -0.2312355 -0.7075474 0.46856534 0.5365443
-0.22143885 0.6444814 0.16440737 0.63016343 -0.367626 0.5008141 0.07875831 0.58553916
0.45989943 0.31768888 0.50392663 -0.14355215 0.3717876 -0.19619644 0.4298378 0.2158687
-1.4023539 -28.78176 1.3958498 9.51883 1.3831263 5.622917 1.3646498 3.924612
1.3411138 2.9613204 1.3133059 2.3345037 -1.2820598 -1.8910267 -1.2481989 -1.5594163
1.2124909 1.3017452 1.3279133 0.9054216 1.2550247 -0.7627459 1.0847272 0.81088203
-1.1781352 0.44183442 -0.32362762 -1.1308626 -0.6141163 -0.9189038 -0.9787878 -0.36003652
-0.514018 -0.84327674 -0.09323856 -0.9332934 -0.8816942 -0.14118941 -0.82704055 -0.20344967
0.14576197 -0.80040205 -0.77790236 0.008032829 -0.2312355 -0.7075474 0.46856534 0.5365443
-0.22143885 0.6444814 0.16440737 0.63016343 -0.367626 0.5008141 0.07875831 0.58553916
0.45989943 0.31768888 0.50392663 -0.14355215 0.3717876 -0.19619644 0.4298378 0.2158687

module.s4_layers.0.kernel.kernel.w f4 [64, 32, 2]
00000000: 80fd ffbe bfe8 a244 00fe ffbe fd83 d843
00000010: 60ff ffbe 7d13 8143 d000 00bf da9e 3643
00000020: 98ff ffbe e536 0c43 00ff ffbe 8ac0 e142
00000030: 9cff ffbe e452 bb42 b200 00bf 52aa 9e42
00000040: 84ff ffbe 5359 8842 0800 00bf 62c8 6c42
00000050: d0fe ffbe 7e21 4f42 4e00 00bf ce24 3642
00000060: 3000 00bf f6bb 2042 c0ff ffbe 8623 0e42
00000070: 6a00 00bf dc9b fb41 ccff ffbe 67a4 de41
00000080: 4c00 00bf f6c1 c441 8000 00bf 267a ad41
00000090: 28ff ffbe 6d6d 9841 2000 00bf fe4f 8541
000000a0: 20ff ffbe 6aca 6741 da00 00bf 64f8 4741
000000b0: b8fe ffbe b7da 2a41 a4ff ffbe 3b31 1041
000000c0: 1a00 00bf a08f ef40 a0ff ffbe 2feb c240
000000d0: 5800 00bf 5a36 9a40 b8ff ffbe 3b8c 6a40
000000e0: a800 00bf d90a 2840 2a00 00bf adfa d93f
000000f0: 1a00 00bf bb17 873e 80ff ffbe 59e6 673f
00000100: 80fd ffbe bfe8 a244 00fe ffbe fd83 d843
00000110: 60ff ffbe 7d13 8143 d000 00bf da9e 3643
00000120: 98ff ffbe e536 0c43 00ff ffbe 8ac0 e142
00000130: 9cff ffbe e452 bb42 b200 00bf 52aa 9e42
00000140: 84ff ffbe 5359 8842 0800 00bf 62c8 6c42
00000150: d0fe ffbe 7e21 4f42 4e00 00bf ce24 3642
00000160: 3000 00bf f6bb 2042 c0ff ffbe 8623 0e42
00000170: 6a00 00bf dc9b fb41 ccff ffbe 67a4 de41
00000180: 4c00 00bf f6c1 c441 8000 00bf 267a ad41
00000190: 28ff ffbe 6d6d 9841 2000 00bf fe4f 8541
000001a0: 20ff ffbe 6aca 6741 da00 00bf 64f8 4741
000001b0: b8fe ffbe b7da 2a41 a4ff ffbe 3b31 1041
000001c0: 1a00 00bf a08f ef40 a0ff ffbe 2feb c240
000001d0: 5800 00bf 5a36 9a40 b8ff ffbe 3b8c 6a40
000001e0: a800 00bf d90a 2840 2a00 00bf adfa d93f
000001f0: 1a00 00bf bb17 873e 80ff ffbe 59e6 673f
00000200: 80fd ffbe bfe8 a244 00fe ffbe fd83 d843
00000210: 60ff ffbe 7d13 8143 d000 00bf da9e 3643
00000220: 98ff ffbe e536 0c43 00ff ffbe 8ac0 e142
00000230: 9cff ffbe e452 bb42 b200 00bf 52aa 9e42
00000240: 84ff ffbe 5359 8842 0800 00bf 62c8 6c42
00000250: d0fe ffbe 7e21 4f42 4e00 00bf ce24 3642
00000260: 3000 00bf f6bb 2042 c0ff ffbe 8623 0e42
00000270: 6a00 00bf dc9b fb41 ccff ffbe 67a4 de41
00000280: 4c00 00bf f6c1 c441 8000 00bf 267a ad41
00000290: 28ff ffbe 6d6d 9841 2000 00bf fe4f 8541
000002a0: 20ff ffbe 6aca 6741 da00 00bf 64f8 4741
000002b0: b8fe ffbe b7da 2a41 a4ff ffbe 3b31 1041
000002c0: 1a00 00bf a08f ef40 a0ff ffbe 2feb c240
000002d0: 5800 00bf 5a36 9a40 b8ff ffbe 3b8c 6a40
000002e0: a800 00bf d90a 2840 2a00 00bf adfa d93f
000002f0: 1a00 00bf bb17 873e 80ff ffbe 59e6 673f
00000300: 80fd ffbe bfe8 a244 00fe ffbe fd83 d843
00000310: 60ff ffbe 7d13 8143 d000 00bf da9e 3643
00000320: 98ff ffbe e536 0c43 00ff ffbe 8ac0 e142
00000330: 9cff ffbe e452 bb42 b200 00bf 52aa 9e42
00000340: 84ff ffbe 5359 8842 0800 00bf 62c8 6c42
00000350: d0fe ffbe 7e21 4f42 4e00 00bf ce24 3642
00000360: 3000 00bf f6bb 2042 c0ff ffbe 8623 0e42
00000370: 6a00 00bf dc9b fb41 ccff ffbe 67a4 de41
00000380: 4c00 00bf f6c1 c441 8000 00bf 267a ad41
00000390: 28ff ffbe 6d6d 9841 2000 00bf fe4f 8541
000003a0: 20ff ffbe 6aca 6741 da00 00bf 64f8 4741
000003b0: b8fe ffbe b7da 2a41 a4ff ffbe 3b31 1041
000003c0: 1a00 00bf a08f ef40 a0ff ffbe 2feb c240
000003d0: 5800 00bf 5a36 9a40 b8ff ffbe 3b8c 6a40
000003e0: a800 00bf d90a 2840 2a00 00bf adfa d93f
000003f0: 1a00 00bf bb17 873e 80ff ffbe 59e6 673f
-0.49998093 1303.2733 -0.49998474 433.03116 -0.49999523 258.15225 -0.5000124 182.62051
-0.4999969 140.21443 -0.49999237 112.87605 -0.49999702 93.661896 -0.5000106 79.33266
-0.4999963 68.17446 -0.5000005 59.195686 -0.49999094 51.782707 -0.50000465 45.535942
-0.50000286 40.183556 -0.4999981 35.53469 -0.5000063 31.451103 -0.49999845 27.830275
-0.50000453 24.594707 -0.5000076 21.684643 -0.49999356 19.05343 -0.5000019 16.664059
-0.49999332 14.4869175 -0.500013 12.498142 -0.49999022 10.678397 -0.49999726 9.012019
-0.50000155 7.4862823 -0.49999714 6.091209 -0.50000525 4.8191347 -0.49999785 3.664809
-0.50001 2.625662 -0.5000025 1.7029625 -0.50000155 0.26385292 -0.4999962 0.9058586
-0.49998093 1303.2733 -0.49998474 433.03116 -0.49999523 258.15225 -0.5000124 182.62051
-0.4999969 140.21443 -0.49999237 112.87605 -0.49999702 93.661896 -0.5000106 79.33266
-0.4999963 68.17446 -0.5000005 59.195686 -0.49999094 51.782707 -0.50000465 45.535942
-0.50000286 40.183556 -0.4999981 35.53469 -0.5000063 31.451103 -0.49999845 27.830275
-0.50000453 24.594707 -0.5000076 21.684643 -0.49999356 19.05343 -0.5000019 16.664059
-0.49999332 14.4869175 -0.500013 12.498142 -0.49999022 10.678397 -0.49999726 9.012019
-0.50000155 7.4862823 -0.49999714 6.091209 -0.50000525 4.8191347 -0.49999785 3.664809
-0.50001 2.625662 -0.5000025 1.7029625 -0.50000155 0.26385292 -0.4999962 0.9058586
-0.49998093 1303.2733 -0.49998474 433.03116 -0.49999523 258.15225 -0.5000124 182.62051
-0.4999969 140.21443 -0.49999237 112.87605 -0.49999702 93.661896 -0.5000106 79.33266
-0.4999963 68.17446 -0.5000005 59.195686 -0.49999094 51.782707 -0.50000465 45.535942
-0.50000286 40.183556 -0.4999981 35.53469 -0.5000063 31.451103 -0.49999845 27.830275
-0.50000453 24.594707 -0.5000076 21.684643 -0.49999356 19.05343 -0.5000019 16.664059
-0.49999332 14.4869175 -0.500013 12.498142 -0.49999022 10.678397 -0.49999726 9.012019
-0.50000155 7.4862823 -0.49999714 6.091209 -0.50000525 4.8191347 -0.49999785 3.664809
-0.50001 2.625662 -0.5000025 1.7029625 -0.50000155 0.26385292 -0.4999962 0.9058586
-0.49998093 1303.2733 -0.49998474 433.03116 -0.49999523 258.15225 -0.5000124 182.62051
-0.4999969 140.21443 -0.49999237 112.87605 -0.49999702 93.661896 -0.5000106 79.33266
-0.4999963 68.17446 -0.5000005 59.195686 -0.49999094 51.782707 -0.50000465 45.535942
-0.50000286 40.183556 -0.4999981 35.53469 -0.5000063 31.451103 -0.49999845 27.830275
-0.50000453 24.594707 -0.5000076 21.684643 -0.49999356 19.05343 -0.5000019 16.664059
-0.49999332 14.4869175 -0.500013 12.498142 -0.49999022 10.678397 -0.49999726 9.012019
-0.50000155 7.4862823 -0.49999714 6.091209 -0.50000525 4.8191347 -0.49999785 3.664809
-0.50001 2.625662 -0.5000025 1.7029625 -0.50000155 0.26385292 -0.4999962 0.9058586
